<<<<<<< HEAD
{"config": {"layers": [{"config": {"batch_input_shape": [null, 64, 64, 1], "name": "input_1", "dtype": "float32", "sparse": false}, "inbound_nodes": [], "name": "input_1", "class_name": "InputLayer"}, {"config": {"trainable": true, "strides": [1, 1], "name": "conv2d_1", "dilation_rate": [1, 1], "kernel_size": [5, 5], "kernel_regularizer": null, "bias_constraint": null, "data_format": "channels_last", "padding": "same", "activation": "relu", "use_bias": true, "bias_regularizer": null, "bias_initializer": {"config": {}, "class_name": "Zeros"}, "kernel_constraint": null, "activity_regularizer": null, "kernel_initializer": {"config": {"scale": 1.0, "mode": "fan_avg", "distribution": "uniform", "seed": null}, "class_name": "VarianceScaling"}, "filters": 32}, "inbound_nodes": [[["input_1", 0, 0, {}]]], "name": "conv2d_1", "class_name": "Conv2D"}, {"config": {"trainable": true, "strides": [1, 1], "name": "conv2d_2", "dilation_rate": [1, 1], "kernel_size": [5, 5], "kernel_regularizer": null, "bias_constraint": null, "data_format": "channels_last", "padding": "same", "activation": "linear", "use_bias": true, "bias_regularizer": null, "bias_initializer": {"config": {}, "class_name": "Zeros"}, "kernel_constraint": null, "activity_regularizer": null, "kernel_initializer": {"config": {"scale": 1.0, "mode": "fan_avg", "distribution": "uniform", "seed": null}, "class_name": "VarianceScaling"}, "filters": 32}, "inbound_nodes": [[["conv2d_1", 0, 0, {}]]], "name": "conv2d_2", "class_name": "Conv2D"}, {"config": {"name": "add_1", "trainable": true}, "inbound_nodes": [[["conv2d_2", 0, 0, {}], ["input_1", 0, 0, {}]]], "name": "add_1", "class_name": "Add"}, {"config": {"name": "activation_1", "trainable": true, "activation": "relu"}, "inbound_nodes": [[["add_1", 0, 0, {}]]], "name": "activation_1", "class_name": "Activation"}, {"config": {"trainable": true, "strides": [1, 1], "name": "conv2d_3", "dilation_rate": [1, 1], "kernel_size": [5, 5], "kernel_regularizer": null, "bias_constraint": null, "data_format": "channels_last", "padding": "same", "activation": "relu", "use_bias": true, "bias_regularizer": null, "bias_initializer": {"config": {}, "class_name": "Zeros"}, "kernel_constraint": null, "activity_regularizer": null, "kernel_initializer": {"config": {"scale": 1.0, "mode": "fan_avg", "distribution": "uniform", "seed": null}, "class_name": "VarianceScaling"}, "filters": 32}, "inbound_nodes": [[["activation_1", 0, 0, {}]]], "name": "conv2d_3", "class_name": "Conv2D"}, {"config": {"trainable": true, "strides": [1, 1], "name": "conv2d_4", "dilation_rate": [1, 1], "kernel_size": [5, 5], "kernel_regularizer": null, "bias_constraint": null, "data_format": "channels_last", "padding": "same", "activation": "linear", "use_bias": true, "bias_regularizer": null, "bias_initializer": {"config": {}, "class_name": "Zeros"}, "kernel_constraint": null, "activity_regularizer": null, "kernel_initializer": {"config": {"scale": 1.0, "mode": "fan_avg", "distribution": "uniform", "seed": null}, "class_name": "VarianceScaling"}, "filters": 32}, "inbound_nodes": [[["conv2d_3", 0, 0, {}]]], "name": "conv2d_4", "class_name": "Conv2D"}, {"config": {"name": "add_2", "trainable": true}, "inbound_nodes": [[["conv2d_4", 0, 0, {}], ["activation_1", 0, 0, {}]]], "name": "add_2", "class_name": "Add"}, {"config": {"name": "activation_2", "trainable": true, "activation": "relu"}, "inbound_nodes": [[["add_2", 0, 0, {}]]], "name": "activation_2", "class_name": "Activation"}, {"config": {"trainable": true, "strides": [1, 1], "name": "conv2d_5", "dilation_rate": [1, 1], "kernel_size": [5, 5], "kernel_regularizer": null, "bias_constraint": null, "data_format": "channels_last", "padding": "same", "activation": "relu", "use_bias": true, "bias_regularizer": null, "bias_initializer": {"config": {}, "class_name": "Zeros"}, "kernel_constraint": null, "activity_regularizer": null, "kernel_initializer": {"config": {"scale": 1.0, "mode": "fan_avg", "distribution": "uniform", "seed": null}, "class_name": "VarianceScaling"}, "filters": 32}, "inbound_nodes": [[["activation_2", 0, 0, {}]]], "name": "conv2d_5", "class_name": "Conv2D"}, {"config": {"trainable": true, "strides": [1, 1], "name": "conv2d_6", "dilation_rate": [1, 1], "kernel_size": [5, 5], "kernel_regularizer": null, "bias_constraint": null, "data_format": "channels_last", "padding": "same", "activation": "linear", "use_bias": true, "bias_regularizer": null, "bias_initializer": {"config": {}, "class_name": "Zeros"}, "kernel_constraint": null, "activity_regularizer": null, "kernel_initializer": {"config": {"scale": 1.0, "mode": "fan_avg", "distribution": "uniform", "seed": null}, "class_name": "VarianceScaling"}, "filters": 32}, "inbound_nodes": [[["conv2d_5", 0, 0, {}]]], "name": "conv2d_6", "class_name": "Conv2D"}, {"config": {"name": "add_3", "trainable": true}, "inbound_nodes": [[["conv2d_6", 0, 0, {}], ["activation_2", 0, 0, {}]]], "name": "add_3", "class_name": "Add"}, {"config": {"name": "activation_3", "trainable": true, "activation": "relu"}, "inbound_nodes": [[["add_3", 0, 0, {}]]], "name": "activation_3", "class_name": "Activation"}, {"config": {"trainable": true, "strides": [1, 1], "name": "conv2d_7", "dilation_rate": [1, 1], "kernel_size": [5, 5], "kernel_regularizer": null, "bias_constraint": null, "data_format": "channels_last", "padding": "same", "activation": "relu", "use_bias": true, "bias_regularizer": null, "bias_initializer": {"config": {}, "class_name": "Zeros"}, "kernel_constraint": null, "activity_regularizer": null, "kernel_initializer": {"config": {"scale": 1.0, "mode": "fan_avg", "distribution": "uniform", "seed": null}, "class_name": "VarianceScaling"}, "filters": 32}, "inbound_nodes": [[["activation_3", 0, 0, {}]]], "name": "conv2d_7", "class_name": "Conv2D"}, {"config": {"trainable": true, "strides": [1, 1], "name": "conv2d_8", "dilation_rate": [1, 1], "kernel_size": [5, 5], "kernel_regularizer": null, "bias_constraint": null, "data_format": "channels_last", "padding": "same", "activation": "linear", "use_bias": true, "bias_regularizer": null, "bias_initializer": {"config": {}, "class_name": "Zeros"}, "kernel_constraint": null, "activity_regularizer": null, "kernel_initializer": {"config": {"scale": 1.0, "mode": "fan_avg", "distribution": "uniform", "seed": null}, "class_name": "VarianceScaling"}, "filters": 32}, "inbound_nodes": [[["conv2d_7", 0, 0, {}]]], "name": "conv2d_8", "class_name": "Conv2D"}, {"config": {"name": "add_4", "trainable": true}, "inbound_nodes": [[["conv2d_8", 0, 0, {}], ["activation_3", 0, 0, {}]]], "name": "add_4", "class_name": "Add"}, {"config": {"name": "activation_4", "trainable": true, "activation": "relu"}, "inbound_nodes": [[["add_4", 0, 0, {}]]], "name": "activation_4", "class_name": "Activation"}, {"config": {"trainable": true, "strides": [1, 1], "name": "conv2d_9", "dilation_rate": [1, 1], "kernel_size": [5, 5], "kernel_regularizer": null, "bias_constraint": null, "data_format": "channels_last", "padding": "same", "activation": "relu", "use_bias": true, "bias_regularizer": null, "bias_initializer": {"config": {}, "class_name": "Zeros"}, "kernel_constraint": null, "activity_regularizer": null, "kernel_initializer": {"config": {"scale": 1.0, "mode": "fan_avg", "distribution": "uniform", "seed": null}, "class_name": "VarianceScaling"}, "filters": 32}, "inbound_nodes": [[["activation_4", 0, 0, {}]]], "name": "conv2d_9", "class_name": "Conv2D"}, {"config": {"trainable": true, "strides": [1, 1], "name": "conv2d_10", "dilation_rate": [1, 1], "kernel_size": [5, 5], "kernel_regularizer": null, "bias_constraint": null, "data_format": "channels_last", "padding": "same", "activation": "linear", "use_bias": true, "bias_regularizer": null, "bias_initializer": {"config": {}, "class_name": "Zeros"}, "kernel_constraint": null, "activity_regularizer": null, "kernel_initializer": {"config": {"scale": 1.0, "mode": "fan_avg", "distribution": "uniform", "seed": null}, "class_name": "VarianceScaling"}, "filters": 32}, "inbound_nodes": [[["conv2d_9", 0, 0, {}]]], "name": "conv2d_10", "class_name": "Conv2D"}, {"config": {"name": "add_5", "trainable": true}, "inbound_nodes": [[["conv2d_10", 0, 0, {}], ["activation_4", 0, 0, {}]]], "name": "add_5", "class_name": "Add"}, {"config": {"name": "activation_5", "trainable": true, "activation": "relu"}, "inbound_nodes": [[["add_5", 0, 0, {}]]], "name": "activation_5", "class_name": "Activation"}, {"config": {"trainable": true, "strides": [1, 1], "name": "conv2d_11", "dilation_rate": [1, 1], "kernel_size": [5, 5], "kernel_regularizer": null, "bias_constraint": null, "data_format": "channels_last", "padding": "same", "activation": "relu", "use_bias": true, "bias_regularizer": null, "bias_initializer": {"config": {}, "class_name": "Zeros"}, "kernel_constraint": null, "activity_regularizer": null, "kernel_initializer": {"config": {"scale": 1.0, "mode": "fan_avg", "distribution": "uniform", "seed": null}, "class_name": "VarianceScaling"}, "filters": 32}, "inbound_nodes": [[["activation_5", 0, 0, {}]]], "name": "conv2d_11", "class_name": "Conv2D"}, {"config": {"trainable": true, "strides": [1, 1], "name": "conv2d_12", "dilation_rate": [1, 1], "kernel_size": [5, 5], "kernel_regularizer": null, "bias_constraint": null, "data_format": "channels_last", "padding": "same", "activation": "linear", "use_bias": true, "bias_regularizer": null, "bias_initializer": {"config": {}, "class_name": "Zeros"}, "kernel_constraint": null, "activity_regularizer": null, "kernel_initializer": {"config": {"scale": 1.0, "mode": "fan_avg", "distribution": "uniform", "seed": null}, "class_name": "VarianceScaling"}, "filters": 32}, "inbound_nodes": [[["conv2d_11", 0, 0, {}]]], "name": "conv2d_12", "class_name": "Conv2D"}, {"config": {"name": "add_6", "trainable": true}, "inbound_nodes": [[["conv2d_12", 0, 0, {}], ["activation_5", 0, 0, {}]]], "name": "add_6", "class_name": "Add"}, {"config": {"name": "activation_6", "trainable": true, "activation": "relu"}, "inbound_nodes": [[["add_6", 0, 0, {}]]], "name": "activation_6", "class_name": "Activation"}, {"config": {"trainable": true, "strides": [2, 2], "name": "conv2d_transpose_1", "kernel_size": [5, 5], "kernel_regularizer": null, "bias_constraint": null, "data_format": "channels_last", "padding": "same", "activation": "linear", "kernel_constraint": null, "use_bias": true, "bias_regularizer": null, "bias_initializer": {"config": {}, "class_name": "Zeros"}, "output_padding": null, "activity_regularizer": null, "kernel_initializer": {"config": {"scale": 1.0, "mode": "fan_avg", "distribution": "uniform", "seed": null}, "class_name": "VarianceScaling"}, "filters": 32}, "inbound_nodes": [[["activation_6", 0, 0, {}]]], "name": "conv2d_transpose_1", "class_name": "Conv2DTranspose"}, {"config": {"trainable": true, "strides": [1, 1], "name": "conv2d_13", "dilation_rate": [1, 1], "kernel_size": [5, 5], "kernel_regularizer": null, "bias_constraint": null, "data_format": "channels_last", "padding": "same", "activation": "relu", "use_bias": true, "bias_regularizer": null, "bias_initializer": {"config": {}, "class_name": "Zeros"}, "kernel_constraint": null, "activity_regularizer": null, "kernel_initializer": {"config": {"scale": 1.0, "mode": "fan_avg", "distribution": "uniform", "seed": null}, "class_name": "VarianceScaling"}, "filters": 32}, "inbound_nodes": [[["conv2d_transpose_1", 0, 0, {}]]], "name": "conv2d_13", "class_name": "Conv2D"}, {"config": {"trainable": true, "strides": [1, 1], "name": "conv2d_14", "dilation_rate": [1, 1], "kernel_size": [5, 5], "kernel_regularizer": null, "bias_constraint": null, "data_format": "channels_last", "padding": "same", "activation": "linear", "use_bias": true, "bias_regularizer": null, "bias_initializer": {"config": {}, "class_name": "Zeros"}, "kernel_constraint": null, "activity_regularizer": null, "kernel_initializer": {"config": {"scale": 1.0, "mode": "fan_avg", "distribution": "uniform", "seed": null}, "class_name": "VarianceScaling"}, "filters": 32}, "inbound_nodes": [[["conv2d_13", 0, 0, {}]]], "name": "conv2d_14", "class_name": "Conv2D"}, {"config": {"name": "add_7", "trainable": true}, "inbound_nodes": [[["conv2d_14", 0, 0, {}], ["conv2d_transpose_1", 0, 0, {}]]], "name": "add_7", "class_name": "Add"}, {"config": {"name": "activation_7", "trainable": true, "activation": "relu"}, "inbound_nodes": [[["add_7", 0, 0, {}]]], "name": "activation_7", "class_name": "Activation"}, {"config": {"trainable": true, "strides": [1, 1], "name": "conv2d_15", "dilation_rate": [1, 1], "kernel_size": [5, 5], "kernel_regularizer": null, "bias_constraint": null, "data_format": "channels_last", "padding": "same", "activation": "relu", "use_bias": true, "bias_regularizer": null, "bias_initializer": {"config": {}, "class_name": "Zeros"}, "kernel_constraint": null, "activity_regularizer": null, "kernel_initializer": {"config": {"scale": 1.0, "mode": "fan_avg", "distribution": "uniform", "seed": null}, "class_name": "VarianceScaling"}, "filters": 32}, "inbound_nodes": [[["activation_7", 0, 0, {}]]], "name": "conv2d_15", "class_name": "Conv2D"}, {"config": {"trainable": true, "strides": [1, 1], "name": "conv2d_16", "dilation_rate": [1, 1], "kernel_size": [5, 5], "kernel_regularizer": null, "bias_constraint": null, "data_format": "channels_last", "padding": "same", "activation": "linear", "use_bias": true, "bias_regularizer": null, "bias_initializer": {"config": {}, "class_name": "Zeros"}, "kernel_constraint": null, "activity_regularizer": null, "kernel_initializer": {"config": {"scale": 1.0, "mode": "fan_avg", "distribution": "uniform", "seed": null}, "class_name": "VarianceScaling"}, "filters": 32}, "inbound_nodes": [[["conv2d_15", 0, 0, {}]]], "name": "conv2d_16", "class_name": "Conv2D"}, {"config": {"name": "add_8", "trainable": true}, "inbound_nodes": [[["conv2d_16", 0, 0, {}], ["activation_7", 0, 0, {}]]], "name": "add_8", "class_name": "Add"}, {"config": {"name": "activation_8", "trainable": true, "activation": "relu"}, "inbound_nodes": [[["add_8", 0, 0, {}]]], "name": "activation_8", "class_name": "Activation"}, {"config": {"trainable": true, "strides": [1, 1], "name": "conv2d_17", "dilation_rate": [1, 1], "kernel_size": [5, 5], "kernel_regularizer": null, "bias_constraint": null, "data_format": "channels_last", "padding": "same", "activation": "relu", "use_bias": true, "bias_regularizer": null, "bias_initializer": {"config": {}, "class_name": "Zeros"}, "kernel_constraint": null, "activity_regularizer": null, "kernel_initializer": {"config": {"scale": 1.0, "mode": "fan_avg", "distribution": "uniform", "seed": null}, "class_name": "VarianceScaling"}, "filters": 32}, "inbound_nodes": [[["activation_8", 0, 0, {}]]], "name": "conv2d_17", "class_name": "Conv2D"}, {"config": {"trainable": true, "strides": [1, 1], "name": "conv2d_18", "dilation_rate": [1, 1], "kernel_size": [5, 5], "kernel_regularizer": null, "bias_constraint": null, "data_format": "channels_last", "padding": "same", "activation": "linear", "use_bias": true, "bias_regularizer": null, "bias_initializer": {"config": {}, "class_name": "Zeros"}, "kernel_constraint": null, "activity_regularizer": null, "kernel_initializer": {"config": {"scale": 1.0, "mode": "fan_avg", "distribution": "uniform", "seed": null}, "class_name": "VarianceScaling"}, "filters": 32}, "inbound_nodes": [[["conv2d_17", 0, 0, {}]]], "name": "conv2d_18", "class_name": "Conv2D"}, {"config": {"name": "add_9", "trainable": true}, "inbound_nodes": [[["conv2d_18", 0, 0, {}], ["activation_8", 0, 0, {}]]], "name": "add_9", "class_name": "Add"}, {"config": {"name": "activation_9", "trainable": true, "activation": "relu"}, "inbound_nodes": [[["add_9", 0, 0, {}]]], "name": "activation_9", "class_name": "Activation"}, {"config": {"trainable": true, "strides": [1, 1], "name": "conv2d_19", "dilation_rate": [1, 1], "kernel_size": [5, 5], "kernel_regularizer": null, "bias_constraint": null, "data_format": "channels_last", "padding": "same", "activation": "relu", "use_bias": true, "bias_regularizer": null, "bias_initializer": {"config": {}, "class_name": "Zeros"}, "kernel_constraint": null, "activity_regularizer": null, "kernel_initializer": {"config": {"scale": 1.0, "mode": "fan_avg", "distribution": "uniform", "seed": null}, "class_name": "VarianceScaling"}, "filters": 32}, "inbound_nodes": [[["activation_9", 0, 0, {}]]], "name": "conv2d_19", "class_name": "Conv2D"}, {"config": {"trainable": true, "strides": [1, 1], "name": "conv2d_20", "dilation_rate": [1, 1], "kernel_size": [5, 5], "kernel_regularizer": null, "bias_constraint": null, "data_format": "channels_last", "padding": "same", "activation": "linear", "use_bias": true, "bias_regularizer": null, "bias_initializer": {"config": {}, "class_name": "Zeros"}, "kernel_constraint": null, "activity_regularizer": null, "kernel_initializer": {"config": {"scale": 1.0, "mode": "fan_avg", "distribution": "uniform", "seed": null}, "class_name": "VarianceScaling"}, "filters": 32}, "inbound_nodes": [[["conv2d_19", 0, 0, {}]]], "name": "conv2d_20", "class_name": "Conv2D"}, {"config": {"name": "add_10", "trainable": true}, "inbound_nodes": [[["conv2d_20", 0, 0, {}], ["activation_9", 0, 0, {}]]], "name": "add_10", "class_name": "Add"}, {"config": {"name": "activation_10", "trainable": true, "activation": "relu"}, "inbound_nodes": [[["add_10", 0, 0, {}]]], "name": "activation_10", "class_name": "Activation"}, {"config": {"trainable": true, "strides": [1, 1], "name": "conv2d_21", "dilation_rate": [1, 1], "kernel_size": [5, 5], "kernel_regularizer": null, "bias_constraint": null, "data_format": "channels_last", "padding": "same", "activation": "relu", "use_bias": true, "bias_regularizer": null, "bias_initializer": {"config": {}, "class_name": "Zeros"}, "kernel_constraint": null, "activity_regularizer": null, "kernel_initializer": {"config": {"scale": 1.0, "mode": "fan_avg", "distribution": "uniform", "seed": null}, "class_name": "VarianceScaling"}, "filters": 32}, "inbound_nodes": [[["activation_10", 0, 0, {}]]], "name": "conv2d_21", "class_name": "Conv2D"}, {"config": {"trainable": true, "strides": [1, 1], "name": "conv2d_22", "dilation_rate": [1, 1], "kernel_size": [5, 5], "kernel_regularizer": null, "bias_constraint": null, "data_format": "channels_last", "padding": "same", "activation": "linear", "use_bias": true, "bias_regularizer": null, "bias_initializer": {"config": {}, "class_name": "Zeros"}, "kernel_constraint": null, "activity_regularizer": null, "kernel_initializer": {"config": {"scale": 1.0, "mode": "fan_avg", "distribution": "uniform", "seed": null}, "class_name": "VarianceScaling"}, "filters": 32}, "inbound_nodes": [[["conv2d_21", 0, 0, {}]]], "name": "conv2d_22", "class_name": "Conv2D"}, {"config": {"name": "add_11", "trainable": true}, "inbound_nodes": [[["conv2d_22", 0, 0, {}], ["activation_10", 0, 0, {}]]], "name": "add_11", "class_name": "Add"}, {"config": {"name": "activation_11", "trainable": true, "activation": "relu"}, "inbound_nodes": [[["add_11", 0, 0, {}]]], "name": "activation_11", "class_name": "Activation"}, {"config": {"trainable": true, "strides": [1, 1], "name": "conv2d_23", "dilation_rate": [1, 1], "kernel_size": [5, 5], "kernel_regularizer": null, "bias_constraint": null, "data_format": "channels_last", "padding": "same", "activation": "relu", "use_bias": true, "bias_regularizer": null, "bias_initializer": {"config": {}, "class_name": "Zeros"}, "kernel_constraint": null, "activity_regularizer": null, "kernel_initializer": {"config": {"scale": 1.0, "mode": "fan_avg", "distribution": "uniform", "seed": null}, "class_name": "VarianceScaling"}, "filters": 32}, "inbound_nodes": [[["activation_11", 0, 0, {}]]], "name": "conv2d_23", "class_name": "Conv2D"}, {"config": {"trainable": true, "strides": [1, 1], "name": "conv2d_24", "dilation_rate": [1, 1], "kernel_size": [5, 5], "kernel_regularizer": null, "bias_constraint": null, "data_format": "channels_last", "padding": "same", "activation": "linear", "use_bias": true, "bias_regularizer": null, "bias_initializer": {"config": {}, "class_name": "Zeros"}, "kernel_constraint": null, "activity_regularizer": null, "kernel_initializer": {"config": {"scale": 1.0, "mode": "fan_avg", "distribution": "uniform", "seed": null}, "class_name": "VarianceScaling"}, "filters": 32}, "inbound_nodes": [[["conv2d_23", 0, 0, {}]]], "name": "conv2d_24", "class_name": "Conv2D"}, {"config": {"name": "add_12", "trainable": true}, "inbound_nodes": [[["conv2d_24", 0, 0, {}], ["activation_11", 0, 0, {}]]], "name": "add_12", "class_name": "Add"}, {"config": {"name": "activation_12", "trainable": true, "activation": "relu"}, "inbound_nodes": [[["add_12", 0, 0, {}]]], "name": "activation_12", "class_name": "Activation"}, {"config": {"trainable": true, "strides": [1, 1], "name": "conv2d_25", "dilation_rate": [1, 1], "kernel_size": [5, 5], "kernel_regularizer": null, "bias_constraint": null, "data_format": "channels_last", "padding": "same", "activation": "sigmoid", "use_bias": true, "bias_regularizer": null, "bias_initializer": {"config": {}, "class_name": "Zeros"}, "kernel_constraint": null, "activity_regularizer": null, "kernel_initializer": {"config": {"scale": 1.0, "mode": "fan_avg", "distribution": "uniform", "seed": null}, "class_name": "VarianceScaling"}, "filters": 1}, "inbound_nodes": [[["activation_12", 0, 0, {}]]], "name": "conv2d_25", "class_name": "Conv2D"}], "name": "model_1", "input_layers": [["input_1", 0, 0]], "output_layers": [["conv2d_25", 0, 0]]}, "keras_version": "2.2.2", "backend": "tensorflow", "class_name": "Model"}
=======
{"class_name": "Model", "backend": "tensorflow", "config": {"output_layers": [["conv2d_25", 0, 0]], "layers": [{"inbound_nodes": [], "class_name": "InputLayer", "config": {"batch_input_shape": [null, 64, 64, 1], "dtype": "float32", "sparse": false, "name": "input_1"}, "name": "input_1"}, {"inbound_nodes": [[["input_1", 0, 0, {}]]], "class_name": "Conv2D", "config": {"bias_constraint": null, "kernel_constraint": null, "name": "conv2d_1", "data_format": "channels_last", "kernel_regularizer": null, "strides": [1, 1], "use_bias": true, "filters": 32, "bias_initializer": {"class_name": "Zeros", "config": {}}, "kernel_size": [5, 5], "dilation_rate": [1, 1], "trainable": true, "activity_regularizer": null, "activation": "relu", "bias_regularizer": null, "kernel_initializer": {"class_name": "VarianceScaling", "config": {"scale": 1.0, "distribution": "uniform", "mode": "fan_avg", "seed": null}}, "padding": "same"}, "name": "conv2d_1"}, {"inbound_nodes": [[["conv2d_1", 0, 0, {}]]], "class_name": "Conv2D", "config": {"bias_constraint": null, "kernel_constraint": null, "name": "conv2d_2", "data_format": "channels_last", "kernel_regularizer": null, "strides": [1, 1], "use_bias": true, "filters": 32, "bias_initializer": {"class_name": "Zeros", "config": {}}, "kernel_size": [5, 5], "dilation_rate": [1, 1], "trainable": true, "activity_regularizer": null, "activation": "linear", "bias_regularizer": null, "kernel_initializer": {"class_name": "VarianceScaling", "config": {"scale": 1.0, "distribution": "uniform", "mode": "fan_avg", "seed": null}}, "padding": "same"}, "name": "conv2d_2"}, {"inbound_nodes": [[["conv2d_2", 0, 0, {}], ["input_1", 0, 0, {}]]], "class_name": "Add", "config": {"trainable": true, "name": "add_1"}, "name": "add_1"}, {"inbound_nodes": [[["add_1", 0, 0, {}]]], "class_name": "Activation", "config": {"activation": "relu", "trainable": true, "name": "activation_1"}, "name": "activation_1"}, {"inbound_nodes": [[["activation_1", 0, 0, {}]]], "class_name": "Conv2D", "config": {"bias_constraint": null, "kernel_constraint": null, "name": "conv2d_3", "data_format": "channels_last", "kernel_regularizer": null, "strides": [1, 1], "use_bias": true, "filters": 32, "bias_initializer": {"class_name": "Zeros", "config": {}}, "kernel_size": [5, 5], "dilation_rate": [1, 1], "trainable": true, "activity_regularizer": null, "activation": "relu", "bias_regularizer": null, "kernel_initializer": {"class_name": "VarianceScaling", "config": {"scale": 1.0, "distribution": "uniform", "mode": "fan_avg", "seed": null}}, "padding": "same"}, "name": "conv2d_3"}, {"inbound_nodes": [[["conv2d_3", 0, 0, {}]]], "class_name": "Conv2D", "config": {"bias_constraint": null, "kernel_constraint": null, "name": "conv2d_4", "data_format": "channels_last", "kernel_regularizer": null, "strides": [1, 1], "use_bias": true, "filters": 32, "bias_initializer": {"class_name": "Zeros", "config": {}}, "kernel_size": [5, 5], "dilation_rate": [1, 1], "trainable": true, "activity_regularizer": null, "activation": "linear", "bias_regularizer": null, "kernel_initializer": {"class_name": "VarianceScaling", "config": {"scale": 1.0, "distribution": "uniform", "mode": "fan_avg", "seed": null}}, "padding": "same"}, "name": "conv2d_4"}, {"inbound_nodes": [[["conv2d_4", 0, 0, {}], ["activation_1", 0, 0, {}]]], "class_name": "Add", "config": {"trainable": true, "name": "add_2"}, "name": "add_2"}, {"inbound_nodes": [[["add_2", 0, 0, {}]]], "class_name": "Activation", "config": {"activation": "relu", "trainable": true, "name": "activation_2"}, "name": "activation_2"}, {"inbound_nodes": [[["activation_2", 0, 0, {}]]], "class_name": "Conv2D", "config": {"bias_constraint": null, "kernel_constraint": null, "name": "conv2d_5", "data_format": "channels_last", "kernel_regularizer": null, "strides": [1, 1], "use_bias": true, "filters": 32, "bias_initializer": {"class_name": "Zeros", "config": {}}, "kernel_size": [5, 5], "dilation_rate": [1, 1], "trainable": true, "activity_regularizer": null, "activation": "relu", "bias_regularizer": null, "kernel_initializer": {"class_name": "VarianceScaling", "config": {"scale": 1.0, "distribution": "uniform", "mode": "fan_avg", "seed": null}}, "padding": "same"}, "name": "conv2d_5"}, {"inbound_nodes": [[["conv2d_5", 0, 0, {}]]], "class_name": "Conv2D", "config": {"bias_constraint": null, "kernel_constraint": null, "name": "conv2d_6", "data_format": "channels_last", "kernel_regularizer": null, "strides": [1, 1], "use_bias": true, "filters": 32, "bias_initializer": {"class_name": "Zeros", "config": {}}, "kernel_size": [5, 5], "dilation_rate": [1, 1], "trainable": true, "activity_regularizer": null, "activation": "linear", "bias_regularizer": null, "kernel_initializer": {"class_name": "VarianceScaling", "config": {"scale": 1.0, "distribution": "uniform", "mode": "fan_avg", "seed": null}}, "padding": "same"}, "name": "conv2d_6"}, {"inbound_nodes": [[["conv2d_6", 0, 0, {}], ["activation_2", 0, 0, {}]]], "class_name": "Add", "config": {"trainable": true, "name": "add_3"}, "name": "add_3"}, {"inbound_nodes": [[["add_3", 0, 0, {}]]], "class_name": "Activation", "config": {"activation": "relu", "trainable": true, "name": "activation_3"}, "name": "activation_3"}, {"inbound_nodes": [[["activation_3", 0, 0, {}]]], "class_name": "Conv2D", "config": {"bias_constraint": null, "kernel_constraint": null, "name": "conv2d_7", "data_format": "channels_last", "kernel_regularizer": null, "strides": [1, 1], "use_bias": true, "filters": 32, "bias_initializer": {"class_name": "Zeros", "config": {}}, "kernel_size": [5, 5], "dilation_rate": [1, 1], "trainable": true, "activity_regularizer": null, "activation": "relu", "bias_regularizer": null, "kernel_initializer": {"class_name": "VarianceScaling", "config": {"scale": 1.0, "distribution": "uniform", "mode": "fan_avg", "seed": null}}, "padding": "same"}, "name": "conv2d_7"}, {"inbound_nodes": [[["conv2d_7", 0, 0, {}]]], "class_name": "Conv2D", "config": {"bias_constraint": null, "kernel_constraint": null, "name": "conv2d_8", "data_format": "channels_last", "kernel_regularizer": null, "strides": [1, 1], "use_bias": true, "filters": 32, "bias_initializer": {"class_name": "Zeros", "config": {}}, "kernel_size": [5, 5], "dilation_rate": [1, 1], "trainable": true, "activity_regularizer": null, "activation": "linear", "bias_regularizer": null, "kernel_initializer": {"class_name": "VarianceScaling", "config": {"scale": 1.0, "distribution": "uniform", "mode": "fan_avg", "seed": null}}, "padding": "same"}, "name": "conv2d_8"}, {"inbound_nodes": [[["conv2d_8", 0, 0, {}], ["activation_3", 0, 0, {}]]], "class_name": "Add", "config": {"trainable": true, "name": "add_4"}, "name": "add_4"}, {"inbound_nodes": [[["add_4", 0, 0, {}]]], "class_name": "Activation", "config": {"activation": "relu", "trainable": true, "name": "activation_4"}, "name": "activation_4"}, {"inbound_nodes": [[["activation_4", 0, 0, {}]]], "class_name": "Conv2D", "config": {"bias_constraint": null, "kernel_constraint": null, "name": "conv2d_9", "data_format": "channels_last", "kernel_regularizer": null, "strides": [1, 1], "use_bias": true, "filters": 32, "bias_initializer": {"class_name": "Zeros", "config": {}}, "kernel_size": [5, 5], "dilation_rate": [1, 1], "trainable": true, "activity_regularizer": null, "activation": "relu", "bias_regularizer": null, "kernel_initializer": {"class_name": "VarianceScaling", "config": {"scale": 1.0, "distribution": "uniform", "mode": "fan_avg", "seed": null}}, "padding": "same"}, "name": "conv2d_9"}, {"inbound_nodes": [[["conv2d_9", 0, 0, {}]]], "class_name": "Conv2D", "config": {"bias_constraint": null, "kernel_constraint": null, "name": "conv2d_10", "data_format": "channels_last", "kernel_regularizer": null, "strides": [1, 1], "use_bias": true, "filters": 32, "bias_initializer": {"class_name": "Zeros", "config": {}}, "kernel_size": [5, 5], "dilation_rate": [1, 1], "trainable": true, "activity_regularizer": null, "activation": "linear", "bias_regularizer": null, "kernel_initializer": {"class_name": "VarianceScaling", "config": {"scale": 1.0, "distribution": "uniform", "mode": "fan_avg", "seed": null}}, "padding": "same"}, "name": "conv2d_10"}, {"inbound_nodes": [[["conv2d_10", 0, 0, {}], ["activation_4", 0, 0, {}]]], "class_name": "Add", "config": {"trainable": true, "name": "add_5"}, "name": "add_5"}, {"inbound_nodes": [[["add_5", 0, 0, {}]]], "class_name": "Activation", "config": {"activation": "relu", "trainable": true, "name": "activation_5"}, "name": "activation_5"}, {"inbound_nodes": [[["activation_5", 0, 0, {}]]], "class_name": "Conv2D", "config": {"bias_constraint": null, "kernel_constraint": null, "name": "conv2d_11", "data_format": "channels_last", "kernel_regularizer": null, "strides": [1, 1], "use_bias": true, "filters": 32, "bias_initializer": {"class_name": "Zeros", "config": {}}, "kernel_size": [5, 5], "dilation_rate": [1, 1], "trainable": true, "activity_regularizer": null, "activation": "relu", "bias_regularizer": null, "kernel_initializer": {"class_name": "VarianceScaling", "config": {"scale": 1.0, "distribution": "uniform", "mode": "fan_avg", "seed": null}}, "padding": "same"}, "name": "conv2d_11"}, {"inbound_nodes": [[["conv2d_11", 0, 0, {}]]], "class_name": "Conv2D", "config": {"bias_constraint": null, "kernel_constraint": null, "name": "conv2d_12", "data_format": "channels_last", "kernel_regularizer": null, "strides": [1, 1], "use_bias": true, "filters": 32, "bias_initializer": {"class_name": "Zeros", "config": {}}, "kernel_size": [5, 5], "dilation_rate": [1, 1], "trainable": true, "activity_regularizer": null, "activation": "linear", "bias_regularizer": null, "kernel_initializer": {"class_name": "VarianceScaling", "config": {"scale": 1.0, "distribution": "uniform", "mode": "fan_avg", "seed": null}}, "padding": "same"}, "name": "conv2d_12"}, {"inbound_nodes": [[["conv2d_12", 0, 0, {}], ["activation_5", 0, 0, {}]]], "class_name": "Add", "config": {"trainable": true, "name": "add_6"}, "name": "add_6"}, {"inbound_nodes": [[["add_6", 0, 0, {}]]], "class_name": "Activation", "config": {"activation": "relu", "trainable": true, "name": "activation_6"}, "name": "activation_6"}, {"inbound_nodes": [[["activation_6", 0, 0, {}]]], "class_name": "Conv2DTranspose", "config": {"bias_constraint": null, "kernel_constraint": null, "name": "conv2d_transpose_1", "data_format": "channels_last", "kernel_regularizer": null, "strides": [2, 2], "use_bias": true, "filters": 32, "bias_initializer": {"class_name": "Zeros", "config": {}}, "kernel_size": [5, 5], "output_padding": null, "trainable": true, "activity_regularizer": null, "activation": "linear", "bias_regularizer": null, "kernel_initializer": {"class_name": "VarianceScaling", "config": {"scale": 1.0, "distribution": "uniform", "mode": "fan_avg", "seed": null}}, "padding": "same"}, "name": "conv2d_transpose_1"}, {"inbound_nodes": [[["conv2d_transpose_1", 0, 0, {}]]], "class_name": "Conv2D", "config": {"bias_constraint": null, "kernel_constraint": null, "name": "conv2d_13", "data_format": "channels_last", "kernel_regularizer": null, "strides": [1, 1], "use_bias": true, "filters": 32, "bias_initializer": {"class_name": "Zeros", "config": {}}, "kernel_size": [5, 5], "dilation_rate": [1, 1], "trainable": true, "activity_regularizer": null, "activation": "relu", "bias_regularizer": null, "kernel_initializer": {"class_name": "VarianceScaling", "config": {"scale": 1.0, "distribution": "uniform", "mode": "fan_avg", "seed": null}}, "padding": "same"}, "name": "conv2d_13"}, {"inbound_nodes": [[["conv2d_13", 0, 0, {}]]], "class_name": "Conv2D", "config": {"bias_constraint": null, "kernel_constraint": null, "name": "conv2d_14", "data_format": "channels_last", "kernel_regularizer": null, "strides": [1, 1], "use_bias": true, "filters": 32, "bias_initializer": {"class_name": "Zeros", "config": {}}, "kernel_size": [5, 5], "dilation_rate": [1, 1], "trainable": true, "activity_regularizer": null, "activation": "linear", "bias_regularizer": null, "kernel_initializer": {"class_name": "VarianceScaling", "config": {"scale": 1.0, "distribution": "uniform", "mode": "fan_avg", "seed": null}}, "padding": "same"}, "name": "conv2d_14"}, {"inbound_nodes": [[["conv2d_14", 0, 0, {}], ["conv2d_transpose_1", 0, 0, {}]]], "class_name": "Add", "config": {"trainable": true, "name": "add_7"}, "name": "add_7"}, {"inbound_nodes": [[["add_7", 0, 0, {}]]], "class_name": "Activation", "config": {"activation": "relu", "trainable": true, "name": "activation_7"}, "name": "activation_7"}, {"inbound_nodes": [[["activation_7", 0, 0, {}]]], "class_name": "Conv2D", "config": {"bias_constraint": null, "kernel_constraint": null, "name": "conv2d_15", "data_format": "channels_last", "kernel_regularizer": null, "strides": [1, 1], "use_bias": true, "filters": 32, "bias_initializer": {"class_name": "Zeros", "config": {}}, "kernel_size": [5, 5], "dilation_rate": [1, 1], "trainable": true, "activity_regularizer": null, "activation": "relu", "bias_regularizer": null, "kernel_initializer": {"class_name": "VarianceScaling", "config": {"scale": 1.0, "distribution": "uniform", "mode": "fan_avg", "seed": null}}, "padding": "same"}, "name": "conv2d_15"}, {"inbound_nodes": [[["conv2d_15", 0, 0, {}]]], "class_name": "Conv2D", "config": {"bias_constraint": null, "kernel_constraint": null, "name": "conv2d_16", "data_format": "channels_last", "kernel_regularizer": null, "strides": [1, 1], "use_bias": true, "filters": 32, "bias_initializer": {"class_name": "Zeros", "config": {}}, "kernel_size": [5, 5], "dilation_rate": [1, 1], "trainable": true, "activity_regularizer": null, "activation": "linear", "bias_regularizer": null, "kernel_initializer": {"class_name": "VarianceScaling", "config": {"scale": 1.0, "distribution": "uniform", "mode": "fan_avg", "seed": null}}, "padding": "same"}, "name": "conv2d_16"}, {"inbound_nodes": [[["conv2d_16", 0, 0, {}], ["activation_7", 0, 0, {}]]], "class_name": "Add", "config": {"trainable": true, "name": "add_8"}, "name": "add_8"}, {"inbound_nodes": [[["add_8", 0, 0, {}]]], "class_name": "Activation", "config": {"activation": "relu", "trainable": true, "name": "activation_8"}, "name": "activation_8"}, {"inbound_nodes": [[["activation_8", 0, 0, {}]]], "class_name": "Conv2D", "config": {"bias_constraint": null, "kernel_constraint": null, "name": "conv2d_17", "data_format": "channels_last", "kernel_regularizer": null, "strides": [1, 1], "use_bias": true, "filters": 32, "bias_initializer": {"class_name": "Zeros", "config": {}}, "kernel_size": [5, 5], "dilation_rate": [1, 1], "trainable": true, "activity_regularizer": null, "activation": "relu", "bias_regularizer": null, "kernel_initializer": {"class_name": "VarianceScaling", "config": {"scale": 1.0, "distribution": "uniform", "mode": "fan_avg", "seed": null}}, "padding": "same"}, "name": "conv2d_17"}, {"inbound_nodes": [[["conv2d_17", 0, 0, {}]]], "class_name": "Conv2D", "config": {"bias_constraint": null, "kernel_constraint": null, "name": "conv2d_18", "data_format": "channels_last", "kernel_regularizer": null, "strides": [1, 1], "use_bias": true, "filters": 32, "bias_initializer": {"class_name": "Zeros", "config": {}}, "kernel_size": [5, 5], "dilation_rate": [1, 1], "trainable": true, "activity_regularizer": null, "activation": "linear", "bias_regularizer": null, "kernel_initializer": {"class_name": "VarianceScaling", "config": {"scale": 1.0, "distribution": "uniform", "mode": "fan_avg", "seed": null}}, "padding": "same"}, "name": "conv2d_18"}, {"inbound_nodes": [[["conv2d_18", 0, 0, {}], ["activation_8", 0, 0, {}]]], "class_name": "Add", "config": {"trainable": true, "name": "add_9"}, "name": "add_9"}, {"inbound_nodes": [[["add_9", 0, 0, {}]]], "class_name": "Activation", "config": {"activation": "relu", "trainable": true, "name": "activation_9"}, "name": "activation_9"}, {"inbound_nodes": [[["activation_9", 0, 0, {}]]], "class_name": "Conv2D", "config": {"bias_constraint": null, "kernel_constraint": null, "name": "conv2d_19", "data_format": "channels_last", "kernel_regularizer": null, "strides": [1, 1], "use_bias": true, "filters": 32, "bias_initializer": {"class_name": "Zeros", "config": {}}, "kernel_size": [5, 5], "dilation_rate": [1, 1], "trainable": true, "activity_regularizer": null, "activation": "relu", "bias_regularizer": null, "kernel_initializer": {"class_name": "VarianceScaling", "config": {"scale": 1.0, "distribution": "uniform", "mode": "fan_avg", "seed": null}}, "padding": "same"}, "name": "conv2d_19"}, {"inbound_nodes": [[["conv2d_19", 0, 0, {}]]], "class_name": "Conv2D", "config": {"bias_constraint": null, "kernel_constraint": null, "name": "conv2d_20", "data_format": "channels_last", "kernel_regularizer": null, "strides": [1, 1], "use_bias": true, "filters": 32, "bias_initializer": {"class_name": "Zeros", "config": {}}, "kernel_size": [5, 5], "dilation_rate": [1, 1], "trainable": true, "activity_regularizer": null, "activation": "linear", "bias_regularizer": null, "kernel_initializer": {"class_name": "VarianceScaling", "config": {"scale": 1.0, "distribution": "uniform", "mode": "fan_avg", "seed": null}}, "padding": "same"}, "name": "conv2d_20"}, {"inbound_nodes": [[["conv2d_20", 0, 0, {}], ["activation_9", 0, 0, {}]]], "class_name": "Add", "config": {"trainable": true, "name": "add_10"}, "name": "add_10"}, {"inbound_nodes": [[["add_10", 0, 0, {}]]], "class_name": "Activation", "config": {"activation": "relu", "trainable": true, "name": "activation_10"}, "name": "activation_10"}, {"inbound_nodes": [[["activation_10", 0, 0, {}]]], "class_name": "Conv2D", "config": {"bias_constraint": null, "kernel_constraint": null, "name": "conv2d_21", "data_format": "channels_last", "kernel_regularizer": null, "strides": [1, 1], "use_bias": true, "filters": 32, "bias_initializer": {"class_name": "Zeros", "config": {}}, "kernel_size": [5, 5], "dilation_rate": [1, 1], "trainable": true, "activity_regularizer": null, "activation": "relu", "bias_regularizer": null, "kernel_initializer": {"class_name": "VarianceScaling", "config": {"scale": 1.0, "distribution": "uniform", "mode": "fan_avg", "seed": null}}, "padding": "same"}, "name": "conv2d_21"}, {"inbound_nodes": [[["conv2d_21", 0, 0, {}]]], "class_name": "Conv2D", "config": {"bias_constraint": null, "kernel_constraint": null, "name": "conv2d_22", "data_format": "channels_last", "kernel_regularizer": null, "strides": [1, 1], "use_bias": true, "filters": 32, "bias_initializer": {"class_name": "Zeros", "config": {}}, "kernel_size": [5, 5], "dilation_rate": [1, 1], "trainable": true, "activity_regularizer": null, "activation": "linear", "bias_regularizer": null, "kernel_initializer": {"class_name": "VarianceScaling", "config": {"scale": 1.0, "distribution": "uniform", "mode": "fan_avg", "seed": null}}, "padding": "same"}, "name": "conv2d_22"}, {"inbound_nodes": [[["conv2d_22", 0, 0, {}], ["activation_10", 0, 0, {}]]], "class_name": "Add", "config": {"trainable": true, "name": "add_11"}, "name": "add_11"}, {"inbound_nodes": [[["add_11", 0, 0, {}]]], "class_name": "Activation", "config": {"activation": "relu", "trainable": true, "name": "activation_11"}, "name": "activation_11"}, {"inbound_nodes": [[["activation_11", 0, 0, {}]]], "class_name": "Conv2D", "config": {"bias_constraint": null, "kernel_constraint": null, "name": "conv2d_23", "data_format": "channels_last", "kernel_regularizer": null, "strides": [1, 1], "use_bias": true, "filters": 32, "bias_initializer": {"class_name": "Zeros", "config": {}}, "kernel_size": [5, 5], "dilation_rate": [1, 1], "trainable": true, "activity_regularizer": null, "activation": "relu", "bias_regularizer": null, "kernel_initializer": {"class_name": "VarianceScaling", "config": {"scale": 1.0, "distribution": "uniform", "mode": "fan_avg", "seed": null}}, "padding": "same"}, "name": "conv2d_23"}, {"inbound_nodes": [[["conv2d_23", 0, 0, {}]]], "class_name": "Conv2D", "config": {"bias_constraint": null, "kernel_constraint": null, "name": "conv2d_24", "data_format": "channels_last", "kernel_regularizer": null, "strides": [1, 1], "use_bias": true, "filters": 32, "bias_initializer": {"class_name": "Zeros", "config": {}}, "kernel_size": [5, 5], "dilation_rate": [1, 1], "trainable": true, "activity_regularizer": null, "activation": "linear", "bias_regularizer": null, "kernel_initializer": {"class_name": "VarianceScaling", "config": {"scale": 1.0, "distribution": "uniform", "mode": "fan_avg", "seed": null}}, "padding": "same"}, "name": "conv2d_24"}, {"inbound_nodes": [[["conv2d_24", 0, 0, {}], ["activation_11", 0, 0, {}]]], "class_name": "Add", "config": {"trainable": true, "name": "add_12"}, "name": "add_12"}, {"inbound_nodes": [[["add_12", 0, 0, {}]]], "class_name": "Activation", "config": {"activation": "relu", "trainable": true, "name": "activation_12"}, "name": "activation_12"}, {"inbound_nodes": [[["activation_12", 0, 0, {}]]], "class_name": "Conv2D", "config": {"bias_constraint": null, "kernel_constraint": null, "name": "conv2d_25", "data_format": "channels_last", "kernel_regularizer": null, "strides": [1, 1], "use_bias": true, "filters": 1, "bias_initializer": {"class_name": "Zeros", "config": {}}, "kernel_size": [5, 5], "dilation_rate": [1, 1], "trainable": true, "activity_regularizer": null, "activation": "sigmoid", "bias_regularizer": null, "kernel_initializer": {"class_name": "VarianceScaling", "config": {"scale": 1.0, "distribution": "uniform", "mode": "fan_avg", "seed": null}}, "padding": "same"}, "name": "conv2d_25"}], "name": "model_1", "input_layers": [["input_1", 0, 0]]}, "keras_version": "2.2.2"}
>>>>>>> eb6414d904bc852bd786b0aa9b6a1f3def070d85
