{"config": {"output_layers": [["conv2d_25", 0, 0]], "layers": [{"config": {"sparse": false, "batch_input_shape": [null, 64, 64, 1], "dtype": "float32", "name": "input_1"}, "name": "input_1", "inbound_nodes": [], "class_name": "InputLayer"}, {"config": {"padding": "same", "kernel_initializer": {"config": {"mode": "fan_avg", "distribution": "uniform", "seed": null, "scale": 1.0}, "class_name": "VarianceScaling"}, "activity_regularizer": null, "bias_initializer": {"config": {}, "class_name": "Zeros"}, "name": "conv2d_1", "bias_regularizer": null, "data_format": "channels_last", "dilation_rate": [1, 1], "filters": 32, "use_bias": true, "strides": [1, 1], "activation": "relu", "kernel_constraint": null, "bias_constraint": null, "trainable": true, "kernel_regularizer": null, "kernel_size": [5, 5]}, "name": "conv2d_1", "inbound_nodes": [[["input_1", 0, 0, {}]]], "class_name": "Conv2D"}, {"config": {"padding": "same", "kernel_initializer": {"config": {"mode": "fan_avg", "distribution": "uniform", "seed": null, "scale": 1.0}, "class_name": "VarianceScaling"}, "activity_regularizer": null, "bias_initializer": {"config": {}, "class_name": "Zeros"}, "name": "conv2d_2", "bias_regularizer": null, "data_format": "channels_last", "dilation_rate": [1, 1], "filters": 32, "use_bias": true, "strides": [1, 1], "activation": "linear", "kernel_constraint": null, "bias_constraint": null, "trainable": true, "kernel_regularizer": null, "kernel_size": [5, 5]}, "name": "conv2d_2", "inbound_nodes": [[["conv2d_1", 0, 0, {}]]], "class_name": "Conv2D"}, {"config": {"trainable": true, "name": "add_1"}, "name": "add_1", "inbound_nodes": [[["conv2d_2", 0, 0, {}], ["input_1", 0, 0, {}]]], "class_name": "Add"}, {"config": {"name": "activation_1", "trainable": true, "activation": "relu"}, "name": "activation_1", "inbound_nodes": [[["add_1", 0, 0, {}]]], "class_name": "Activation"}, {"config": {"padding": "same", "kernel_initializer": {"config": {"mode": "fan_avg", "distribution": "uniform", "seed": null, "scale": 1.0}, "class_name": "VarianceScaling"}, "activity_regularizer": null, "bias_initializer": {"config": {}, "class_name": "Zeros"}, "name": "conv2d_3", "bias_regularizer": null, "data_format": "channels_last", "dilation_rate": [1, 1], "filters": 32, "use_bias": true, "strides": [1, 1], "activation": "relu", "kernel_constraint": null, "bias_constraint": null, "trainable": true, "kernel_regularizer": null, "kernel_size": [5, 5]}, "name": "conv2d_3", "inbound_nodes": [[["activation_1", 0, 0, {}]]], "class_name": "Conv2D"}, {"config": {"padding": "same", "kernel_initializer": {"config": {"mode": "fan_avg", "distribution": "uniform", "seed": null, "scale": 1.0}, "class_name": "VarianceScaling"}, "activity_regularizer": null, "bias_initializer": {"config": {}, "class_name": "Zeros"}, "name": "conv2d_4", "bias_regularizer": null, "data_format": "channels_last", "dilation_rate": [1, 1], "filters": 32, "use_bias": true, "strides": [1, 1], "activation": "linear", "kernel_constraint": null, "bias_constraint": null, "trainable": true, "kernel_regularizer": null, "kernel_size": [5, 5]}, "name": "conv2d_4", "inbound_nodes": [[["conv2d_3", 0, 0, {}]]], "class_name": "Conv2D"}, {"config": {"trainable": true, "name": "add_2"}, "name": "add_2", "inbound_nodes": [[["conv2d_4", 0, 0, {}], ["activation_1", 0, 0, {}]]], "class_name": "Add"}, {"config": {"name": "activation_2", "trainable": true, "activation": "relu"}, "name": "activation_2", "inbound_nodes": [[["add_2", 0, 0, {}]]], "class_name": "Activation"}, {"config": {"padding": "same", "kernel_initializer": {"config": {"mode": "fan_avg", "distribution": "uniform", "seed": null, "scale": 1.0}, "class_name": "VarianceScaling"}, "activity_regularizer": null, "bias_initializer": {"config": {}, "class_name": "Zeros"}, "name": "conv2d_5", "bias_regularizer": null, "data_format": "channels_last", "dilation_rate": [1, 1], "filters": 32, "use_bias": true, "strides": [1, 1], "activation": "relu", "kernel_constraint": null, "bias_constraint": null, "trainable": true, "kernel_regularizer": null, "kernel_size": [5, 5]}, "name": "conv2d_5", "inbound_nodes": [[["activation_2", 0, 0, {}]]], "class_name": "Conv2D"}, {"config": {"padding": "same", "kernel_initializer": {"config": {"mode": "fan_avg", "distribution": "uniform", "seed": null, "scale": 1.0}, "class_name": "VarianceScaling"}, "activity_regularizer": null, "bias_initializer": {"config": {}, "class_name": "Zeros"}, "name": "conv2d_6", "bias_regularizer": null, "data_format": "channels_last", "dilation_rate": [1, 1], "filters": 32, "use_bias": true, "strides": [1, 1], "activation": "linear", "kernel_constraint": null, "bias_constraint": null, "trainable": true, "kernel_regularizer": null, "kernel_size": [5, 5]}, "name": "conv2d_6", "inbound_nodes": [[["conv2d_5", 0, 0, {}]]], "class_name": "Conv2D"}, {"config": {"trainable": true, "name": "add_3"}, "name": "add_3", "inbound_nodes": [[["conv2d_6", 0, 0, {}], ["activation_2", 0, 0, {}]]], "class_name": "Add"}, {"config": {"name": "activation_3", "trainable": true, "activation": "relu"}, "name": "activation_3", "inbound_nodes": [[["add_3", 0, 0, {}]]], "class_name": "Activation"}, {"config": {"padding": "same", "kernel_initializer": {"config": {"mode": "fan_avg", "distribution": "uniform", "seed": null, "scale": 1.0}, "class_name": "VarianceScaling"}, "activity_regularizer": null, "bias_initializer": {"config": {}, "class_name": "Zeros"}, "name": "conv2d_7", "bias_regularizer": null, "data_format": "channels_last", "dilation_rate": [1, 1], "filters": 32, "use_bias": true, "strides": [1, 1], "activation": "relu", "kernel_constraint": null, "bias_constraint": null, "trainable": true, "kernel_regularizer": null, "kernel_size": [5, 5]}, "name": "conv2d_7", "inbound_nodes": [[["activation_3", 0, 0, {}]]], "class_name": "Conv2D"}, {"config": {"padding": "same", "kernel_initializer": {"config": {"mode": "fan_avg", "distribution": "uniform", "seed": null, "scale": 1.0}, "class_name": "VarianceScaling"}, "activity_regularizer": null, "bias_initializer": {"config": {}, "class_name": "Zeros"}, "name": "conv2d_8", "bias_regularizer": null, "data_format": "channels_last", "dilation_rate": [1, 1], "filters": 32, "use_bias": true, "strides": [1, 1], "activation": "linear", "kernel_constraint": null, "bias_constraint": null, "trainable": true, "kernel_regularizer": null, "kernel_size": [5, 5]}, "name": "conv2d_8", "inbound_nodes": [[["conv2d_7", 0, 0, {}]]], "class_name": "Conv2D"}, {"config": {"trainable": true, "name": "add_4"}, "name": "add_4", "inbound_nodes": [[["conv2d_8", 0, 0, {}], ["activation_3", 0, 0, {}]]], "class_name": "Add"}, {"config": {"name": "activation_4", "trainable": true, "activation": "relu"}, "name": "activation_4", "inbound_nodes": [[["add_4", 0, 0, {}]]], "class_name": "Activation"}, {"config": {"padding": "same", "kernel_initializer": {"config": {"mode": "fan_avg", "distribution": "uniform", "seed": null, "scale": 1.0}, "class_name": "VarianceScaling"}, "activity_regularizer": null, "bias_initializer": {"config": {}, "class_name": "Zeros"}, "name": "conv2d_9", "bias_regularizer": null, "data_format": "channels_last", "dilation_rate": [1, 1], "filters": 32, "use_bias": true, "strides": [1, 1], "activation": "relu", "kernel_constraint": null, "bias_constraint": null, "trainable": true, "kernel_regularizer": null, "kernel_size": [5, 5]}, "name": "conv2d_9", "inbound_nodes": [[["activation_4", 0, 0, {}]]], "class_name": "Conv2D"}, {"config": {"padding": "same", "kernel_initializer": {"config": {"mode": "fan_avg", "distribution": "uniform", "seed": null, "scale": 1.0}, "class_name": "VarianceScaling"}, "activity_regularizer": null, "bias_initializer": {"config": {}, "class_name": "Zeros"}, "name": "conv2d_10", "bias_regularizer": null, "data_format": "channels_last", "dilation_rate": [1, 1], "filters": 32, "use_bias": true, "strides": [1, 1], "activation": "linear", "kernel_constraint": null, "bias_constraint": null, "trainable": true, "kernel_regularizer": null, "kernel_size": [5, 5]}, "name": "conv2d_10", "inbound_nodes": [[["conv2d_9", 0, 0, {}]]], "class_name": "Conv2D"}, {"config": {"trainable": true, "name": "add_5"}, "name": "add_5", "inbound_nodes": [[["conv2d_10", 0, 0, {}], ["activation_4", 0, 0, {}]]], "class_name": "Add"}, {"config": {"name": "activation_5", "trainable": true, "activation": "relu"}, "name": "activation_5", "inbound_nodes": [[["add_5", 0, 0, {}]]], "class_name": "Activation"}, {"config": {"padding": "same", "kernel_initializer": {"config": {"mode": "fan_avg", "distribution": "uniform", "seed": null, "scale": 1.0}, "class_name": "VarianceScaling"}, "activity_regularizer": null, "bias_initializer": {"config": {}, "class_name": "Zeros"}, "name": "conv2d_11", "bias_regularizer": null, "data_format": "channels_last", "dilation_rate": [1, 1], "filters": 32, "use_bias": true, "strides": [1, 1], "activation": "relu", "kernel_constraint": null, "bias_constraint": null, "trainable": true, "kernel_regularizer": null, "kernel_size": [5, 5]}, "name": "conv2d_11", "inbound_nodes": [[["activation_5", 0, 0, {}]]], "class_name": "Conv2D"}, {"config": {"padding": "same", "kernel_initializer": {"config": {"mode": "fan_avg", "distribution": "uniform", "seed": null, "scale": 1.0}, "class_name": "VarianceScaling"}, "activity_regularizer": null, "bias_initializer": {"config": {}, "class_name": "Zeros"}, "name": "conv2d_12", "bias_regularizer": null, "data_format": "channels_last", "dilation_rate": [1, 1], "filters": 32, "use_bias": true, "strides": [1, 1], "activation": "linear", "kernel_constraint": null, "bias_constraint": null, "trainable": true, "kernel_regularizer": null, "kernel_size": [5, 5]}, "name": "conv2d_12", "inbound_nodes": [[["conv2d_11", 0, 0, {}]]], "class_name": "Conv2D"}, {"config": {"trainable": true, "name": "add_6"}, "name": "add_6", "inbound_nodes": [[["conv2d_12", 0, 0, {}], ["activation_5", 0, 0, {}]]], "class_name": "Add"}, {"config": {"name": "activation_6", "trainable": true, "activation": "relu"}, "name": "activation_6", "inbound_nodes": [[["add_6", 0, 0, {}]]], "class_name": "Activation"}, {"config": {"padding": "same", "kernel_initializer": {"config": {"mode": "fan_avg", "distribution": "uniform", "seed": null, "scale": 1.0}, "class_name": "VarianceScaling"}, "activity_regularizer": null, "bias_initializer": {"config": {}, "class_name": "Zeros"}, "name": "conv2d_transpose_1", "bias_regularizer": null, "data_format": "channels_last", "output_padding": null, "filters": 32, "use_bias": true, "strides": [2, 2], "activation": "linear", "kernel_constraint": null, "bias_constraint": null, "trainable": true, "kernel_regularizer": null, "kernel_size": [5, 5]}, "name": "conv2d_transpose_1", "inbound_nodes": [[["activation_6", 0, 0, {}]]], "class_name": "Conv2DTranspose"}, {"config": {"padding": "same", "kernel_initializer": {"config": {"mode": "fan_avg", "distribution": "uniform", "seed": null, "scale": 1.0}, "class_name": "VarianceScaling"}, "activity_regularizer": null, "bias_initializer": {"config": {}, "class_name": "Zeros"}, "name": "conv2d_13", "bias_regularizer": null, "data_format": "channels_last", "dilation_rate": [1, 1], "filters": 32, "use_bias": true, "strides": [1, 1], "activation": "relu", "kernel_constraint": null, "bias_constraint": null, "trainable": true, "kernel_regularizer": null, "kernel_size": [5, 5]}, "name": "conv2d_13", "inbound_nodes": [[["conv2d_transpose_1", 0, 0, {}]]], "class_name": "Conv2D"}, {"config": {"padding": "same", "kernel_initializer": {"config": {"mode": "fan_avg", "distribution": "uniform", "seed": null, "scale": 1.0}, "class_name": "VarianceScaling"}, "activity_regularizer": null, "bias_initializer": {"config": {}, "class_name": "Zeros"}, "name": "conv2d_14", "bias_regularizer": null, "data_format": "channels_last", "dilation_rate": [1, 1], "filters": 32, "use_bias": true, "strides": [1, 1], "activation": "linear", "kernel_constraint": null, "bias_constraint": null, "trainable": true, "kernel_regularizer": null, "kernel_size": [5, 5]}, "name": "conv2d_14", "inbound_nodes": [[["conv2d_13", 0, 0, {}]]], "class_name": "Conv2D"}, {"config": {"trainable": true, "name": "add_7"}, "name": "add_7", "inbound_nodes": [[["conv2d_14", 0, 0, {}], ["conv2d_transpose_1", 0, 0, {}]]], "class_name": "Add"}, {"config": {"name": "activation_7", "trainable": true, "activation": "relu"}, "name": "activation_7", "inbound_nodes": [[["add_7", 0, 0, {}]]], "class_name": "Activation"}, {"config": {"padding": "same", "kernel_initializer": {"config": {"mode": "fan_avg", "distribution": "uniform", "seed": null, "scale": 1.0}, "class_name": "VarianceScaling"}, "activity_regularizer": null, "bias_initializer": {"config": {}, "class_name": "Zeros"}, "name": "conv2d_15", "bias_regularizer": null, "data_format": "channels_last", "dilation_rate": [1, 1], "filters": 32, "use_bias": true, "strides": [1, 1], "activation": "relu", "kernel_constraint": null, "bias_constraint": null, "trainable": true, "kernel_regularizer": null, "kernel_size": [5, 5]}, "name": "conv2d_15", "inbound_nodes": [[["activation_7", 0, 0, {}]]], "class_name": "Conv2D"}, {"config": {"padding": "same", "kernel_initializer": {"config": {"mode": "fan_avg", "distribution": "uniform", "seed": null, "scale": 1.0}, "class_name": "VarianceScaling"}, "activity_regularizer": null, "bias_initializer": {"config": {}, "class_name": "Zeros"}, "name": "conv2d_16", "bias_regularizer": null, "data_format": "channels_last", "dilation_rate": [1, 1], "filters": 32, "use_bias": true, "strides": [1, 1], "activation": "linear", "kernel_constraint": null, "bias_constraint": null, "trainable": true, "kernel_regularizer": null, "kernel_size": [5, 5]}, "name": "conv2d_16", "inbound_nodes": [[["conv2d_15", 0, 0, {}]]], "class_name": "Conv2D"}, {"config": {"trainable": true, "name": "add_8"}, "name": "add_8", "inbound_nodes": [[["conv2d_16", 0, 0, {}], ["activation_7", 0, 0, {}]]], "class_name": "Add"}, {"config": {"name": "activation_8", "trainable": true, "activation": "relu"}, "name": "activation_8", "inbound_nodes": [[["add_8", 0, 0, {}]]], "class_name": "Activation"}, {"config": {"padding": "same", "kernel_initializer": {"config": {"mode": "fan_avg", "distribution": "uniform", "seed": null, "scale": 1.0}, "class_name": "VarianceScaling"}, "activity_regularizer": null, "bias_initializer": {"config": {}, "class_name": "Zeros"}, "name": "conv2d_17", "bias_regularizer": null, "data_format": "channels_last", "dilation_rate": [1, 1], "filters": 32, "use_bias": true, "strides": [1, 1], "activation": "relu", "kernel_constraint": null, "bias_constraint": null, "trainable": true, "kernel_regularizer": null, "kernel_size": [5, 5]}, "name": "conv2d_17", "inbound_nodes": [[["activation_8", 0, 0, {}]]], "class_name": "Conv2D"}, {"config": {"padding": "same", "kernel_initializer": {"config": {"mode": "fan_avg", "distribution": "uniform", "seed": null, "scale": 1.0}, "class_name": "VarianceScaling"}, "activity_regularizer": null, "bias_initializer": {"config": {}, "class_name": "Zeros"}, "name": "conv2d_18", "bias_regularizer": null, "data_format": "channels_last", "dilation_rate": [1, 1], "filters": 32, "use_bias": true, "strides": [1, 1], "activation": "linear", "kernel_constraint": null, "bias_constraint": null, "trainable": true, "kernel_regularizer": null, "kernel_size": [5, 5]}, "name": "conv2d_18", "inbound_nodes": [[["conv2d_17", 0, 0, {}]]], "class_name": "Conv2D"}, {"config": {"trainable": true, "name": "add_9"}, "name": "add_9", "inbound_nodes": [[["conv2d_18", 0, 0, {}], ["activation_8", 0, 0, {}]]], "class_name": "Add"}, {"config": {"name": "activation_9", "trainable": true, "activation": "relu"}, "name": "activation_9", "inbound_nodes": [[["add_9", 0, 0, {}]]], "class_name": "Activation"}, {"config": {"padding": "same", "kernel_initializer": {"config": {"mode": "fan_avg", "distribution": "uniform", "seed": null, "scale": 1.0}, "class_name": "VarianceScaling"}, "activity_regularizer": null, "bias_initializer": {"config": {}, "class_name": "Zeros"}, "name": "conv2d_19", "bias_regularizer": null, "data_format": "channels_last", "dilation_rate": [1, 1], "filters": 32, "use_bias": true, "strides": [1, 1], "activation": "relu", "kernel_constraint": null, "bias_constraint": null, "trainable": true, "kernel_regularizer": null, "kernel_size": [5, 5]}, "name": "conv2d_19", "inbound_nodes": [[["activation_9", 0, 0, {}]]], "class_name": "Conv2D"}, {"config": {"padding": "same", "kernel_initializer": {"config": {"mode": "fan_avg", "distribution": "uniform", "seed": null, "scale": 1.0}, "class_name": "VarianceScaling"}, "activity_regularizer": null, "bias_initializer": {"config": {}, "class_name": "Zeros"}, "name": "conv2d_20", "bias_regularizer": null, "data_format": "channels_last", "dilation_rate": [1, 1], "filters": 32, "use_bias": true, "strides": [1, 1], "activation": "linear", "kernel_constraint": null, "bias_constraint": null, "trainable": true, "kernel_regularizer": null, "kernel_size": [5, 5]}, "name": "conv2d_20", "inbound_nodes": [[["conv2d_19", 0, 0, {}]]], "class_name": "Conv2D"}, {"config": {"trainable": true, "name": "add_10"}, "name": "add_10", "inbound_nodes": [[["conv2d_20", 0, 0, {}], ["activation_9", 0, 0, {}]]], "class_name": "Add"}, {"config": {"name": "activation_10", "trainable": true, "activation": "relu"}, "name": "activation_10", "inbound_nodes": [[["add_10", 0, 0, {}]]], "class_name": "Activation"}, {"config": {"padding": "same", "kernel_initializer": {"config": {"mode": "fan_avg", "distribution": "uniform", "seed": null, "scale": 1.0}, "class_name": "VarianceScaling"}, "activity_regularizer": null, "bias_initializer": {"config": {}, "class_name": "Zeros"}, "name": "conv2d_21", "bias_regularizer": null, "data_format": "channels_last", "dilation_rate": [1, 1], "filters": 32, "use_bias": true, "strides": [1, 1], "activation": "relu", "kernel_constraint": null, "bias_constraint": null, "trainable": true, "kernel_regularizer": null, "kernel_size": [5, 5]}, "name": "conv2d_21", "inbound_nodes": [[["activation_10", 0, 0, {}]]], "class_name": "Conv2D"}, {"config": {"padding": "same", "kernel_initializer": {"config": {"mode": "fan_avg", "distribution": "uniform", "seed": null, "scale": 1.0}, "class_name": "VarianceScaling"}, "activity_regularizer": null, "bias_initializer": {"config": {}, "class_name": "Zeros"}, "name": "conv2d_22", "bias_regularizer": null, "data_format": "channels_last", "dilation_rate": [1, 1], "filters": 32, "use_bias": true, "strides": [1, 1], "activation": "linear", "kernel_constraint": null, "bias_constraint": null, "trainable": true, "kernel_regularizer": null, "kernel_size": [5, 5]}, "name": "conv2d_22", "inbound_nodes": [[["conv2d_21", 0, 0, {}]]], "class_name": "Conv2D"}, {"config": {"trainable": true, "name": "add_11"}, "name": "add_11", "inbound_nodes": [[["conv2d_22", 0, 0, {}], ["activation_10", 0, 0, {}]]], "class_name": "Add"}, {"config": {"name": "activation_11", "trainable": true, "activation": "relu"}, "name": "activation_11", "inbound_nodes": [[["add_11", 0, 0, {}]]], "class_name": "Activation"}, {"config": {"padding": "same", "kernel_initializer": {"config": {"mode": "fan_avg", "distribution": "uniform", "seed": null, "scale": 1.0}, "class_name": "VarianceScaling"}, "activity_regularizer": null, "bias_initializer": {"config": {}, "class_name": "Zeros"}, "name": "conv2d_23", "bias_regularizer": null, "data_format": "channels_last", "dilation_rate": [1, 1], "filters": 32, "use_bias": true, "strides": [1, 1], "activation": "relu", "kernel_constraint": null, "bias_constraint": null, "trainable": true, "kernel_regularizer": null, "kernel_size": [5, 5]}, "name": "conv2d_23", "inbound_nodes": [[["activation_11", 0, 0, {}]]], "class_name": "Conv2D"}, {"config": {"padding": "same", "kernel_initializer": {"config": {"mode": "fan_avg", "distribution": "uniform", "seed": null, "scale": 1.0}, "class_name": "VarianceScaling"}, "activity_regularizer": null, "bias_initializer": {"config": {}, "class_name": "Zeros"}, "name": "conv2d_24", "bias_regularizer": null, "data_format": "channels_last", "dilation_rate": [1, 1], "filters": 32, "use_bias": true, "strides": [1, 1], "activation": "linear", "kernel_constraint": null, "bias_constraint": null, "trainable": true, "kernel_regularizer": null, "kernel_size": [5, 5]}, "name": "conv2d_24", "inbound_nodes": [[["conv2d_23", 0, 0, {}]]], "class_name": "Conv2D"}, {"config": {"trainable": true, "name": "add_12"}, "name": "add_12", "inbound_nodes": [[["conv2d_24", 0, 0, {}], ["activation_11", 0, 0, {}]]], "class_name": "Add"}, {"config": {"name": "activation_12", "trainable": true, "activation": "relu"}, "name": "activation_12", "inbound_nodes": [[["add_12", 0, 0, {}]]], "class_name": "Activation"}, {"config": {"padding": "same", "kernel_initializer": {"config": {"mode": "fan_avg", "distribution": "uniform", "seed": null, "scale": 1.0}, "class_name": "VarianceScaling"}, "activity_regularizer": null, "bias_initializer": {"config": {}, "class_name": "Zeros"}, "name": "conv2d_25", "bias_regularizer": null, "data_format": "channels_last", "dilation_rate": [1, 1], "filters": 1, "use_bias": true, "strides": [1, 1], "activation": "sigmoid", "kernel_constraint": null, "bias_constraint": null, "trainable": true, "kernel_regularizer": null, "kernel_size": [5, 5]}, "name": "conv2d_25", "inbound_nodes": [[["activation_12", 0, 0, {}]]], "class_name": "Conv2D"}], "name": "model_1", "input_layers": [["input_1", 0, 0]]}, "keras_version": "2.2.2", "backend": "tensorflow", "class_name": "Model"}