{"config": {"layers": [{"config": {"batch_input_shape": [null, 64, 64, 1], "name": "input_1", "dtype": "float32", "sparse": false}, "inbound_nodes": [], "name": "input_1", "class_name": "InputLayer"}, {"config": {"trainable": true, "strides": [1, 1], "name": "conv2d_1", "dilation_rate": [1, 1], "kernel_size": [5, 5], "kernel_regularizer": null, "bias_constraint": null, "data_format": "channels_last", "padding": "same", "activation": "relu", "use_bias": true, "bias_regularizer": null, "bias_initializer": {"config": {}, "class_name": "Zeros"}, "kernel_constraint": null, "activity_regularizer": null, "kernel_initializer": {"config": {"scale": 1.0, "mode": "fan_avg", "distribution": "uniform", "seed": null}, "class_name": "VarianceScaling"}, "filters": 32}, "inbound_nodes": [[["input_1", 0, 0, {}]]], "name": "conv2d_1", "class_name": "Conv2D"}, {"config": {"trainable": true, "strides": [1, 1], "name": "conv2d_2", "dilation_rate": [1, 1], "kernel_size": [5, 5], "kernel_regularizer": null, "bias_constraint": null, "data_format": "channels_last", "padding": "same", "activation": "linear", "use_bias": true, "bias_regularizer": null, "bias_initializer": {"config": {}, "class_name": "Zeros"}, "kernel_constraint": null, "activity_regularizer": null, "kernel_initializer": {"config": {"scale": 1.0, "mode": "fan_avg", "distribution": "uniform", "seed": null}, "class_name": "VarianceScaling"}, "filters": 32}, "inbound_nodes": [[["conv2d_1", 0, 0, {}]]], "name": "conv2d_2", "class_name": "Conv2D"}, {"config": {"name": "add_1", "trainable": true}, "inbound_nodes": [[["conv2d_2", 0, 0, {}], ["input_1", 0, 0, {}]]], "name": "add_1", "class_name": "Add"}, {"config": {"name": "activation_1", "trainable": true, "activation": "relu"}, "inbound_nodes": [[["add_1", 0, 0, {}]]], "name": "activation_1", "class_name": "Activation"}, {"config": {"trainable": true, "strides": [1, 1], "name": "conv2d_3", "dilation_rate": [1, 1], "kernel_size": [5, 5], "kernel_regularizer": null, "bias_constraint": null, "data_format": "channels_last", "padding": "same", "activation": "relu", "use_bias": true, "bias_regularizer": null, "bias_initializer": {"config": {}, "class_name": "Zeros"}, "kernel_constraint": null, "activity_regularizer": null, "kernel_initializer": {"config": {"scale": 1.0, "mode": "fan_avg", "distribution": "uniform", "seed": null}, "class_name": "VarianceScaling"}, "filters": 32}, "inbound_nodes": [[["activation_1", 0, 0, {}]]], "name": "conv2d_3", "class_name": "Conv2D"}, {"config": {"trainable": true, "strides": [1, 1], "name": "conv2d_4", "dilation_rate": [1, 1], "kernel_size": [5, 5], "kernel_regularizer": null, "bias_constraint": null, "data_format": "channels_last", "padding": "same", "activation": "linear", "use_bias": true, "bias_regularizer": null, "bias_initializer": {"config": {}, "class_name": "Zeros"}, "kernel_constraint": null, "activity_regularizer": null, "kernel_initializer": {"config": {"scale": 1.0, "mode": "fan_avg", "distribution": "uniform", "seed": null}, "class_name": "VarianceScaling"}, "filters": 32}, "inbound_nodes": [[["conv2d_3", 0, 0, {}]]], "name": "conv2d_4", "class_name": "Conv2D"}, {"config": {"name": "add_2", "trainable": true}, "inbound_nodes": [[["conv2d_4", 0, 0, {}], ["activation_1", 0, 0, {}]]], "name": "add_2", "class_name": "Add"}, {"config": {"name": "activation_2", "trainable": true, "activation": "relu"}, "inbound_nodes": [[["add_2", 0, 0, {}]]], "name": "activation_2", "class_name": "Activation"}, {"config": {"trainable": true, "strides": [1, 1], "name": "conv2d_5", "dilation_rate": [1, 1], "kernel_size": [5, 5], "kernel_regularizer": null, "bias_constraint": null, "data_format": "channels_last", "padding": "same", "activation": "relu", "use_bias": true, "bias_regularizer": null, "bias_initializer": {"config": {}, "class_name": "Zeros"}, "kernel_constraint": null, "activity_regularizer": null, "kernel_initializer": {"config": {"scale": 1.0, "mode": "fan_avg", "distribution": "uniform", "seed": null}, "class_name": "VarianceScaling"}, "filters": 32}, "inbound_nodes": [[["activation_2", 0, 0, {}]]], "name": "conv2d_5", "class_name": "Conv2D"}, {"config": {"trainable": true, "strides": [1, 1], "name": "conv2d_6", "dilation_rate": [1, 1], "kernel_size": [5, 5], "kernel_regularizer": null, "bias_constraint": null, "data_format": "channels_last", "padding": "same", "activation": "linear", "use_bias": true, "bias_regularizer": null, "bias_initializer": {"config": {}, "class_name": "Zeros"}, "kernel_constraint": null, "activity_regularizer": null, "kernel_initializer": {"config": {"scale": 1.0, "mode": "fan_avg", "distribution": "uniform", "seed": null}, "class_name": "VarianceScaling"}, "filters": 32}, "inbound_nodes": [[["conv2d_5", 0, 0, {}]]], "name": "conv2d_6", "class_name": "Conv2D"}, {"config": {"name": "add_3", "trainable": true}, "inbound_nodes": [[["conv2d_6", 0, 0, {}], ["activation_2", 0, 0, {}]]], "name": "add_3", "class_name": "Add"}, {"config": {"name": "activation_3", "trainable": true, "activation": "relu"}, "inbound_nodes": [[["add_3", 0, 0, {}]]], "name": "activation_3", "class_name": "Activation"}, {"config": {"trainable": true, "strides": [1, 1], "name": "conv2d_7", "dilation_rate": [1, 1], "kernel_size": [5, 5], "kernel_regularizer": null, "bias_constraint": null, "data_format": "channels_last", "padding": "same", "activation": "relu", "use_bias": true, "bias_regularizer": null, "bias_initializer": {"config": {}, "class_name": "Zeros"}, "kernel_constraint": null, "activity_regularizer": null, "kernel_initializer": {"config": {"scale": 1.0, "mode": "fan_avg", "distribution": "uniform", "seed": null}, "class_name": "VarianceScaling"}, "filters": 32}, "inbound_nodes": [[["activation_3", 0, 0, {}]]], "name": "conv2d_7", "class_name": "Conv2D"}, {"config": {"trainable": true, "strides": [1, 1], "name": "conv2d_8", "dilation_rate": [1, 1], "kernel_size": [5, 5], "kernel_regularizer": null, "bias_constraint": null, "data_format": "channels_last", "padding": "same", "activation": "linear", "use_bias": true, "bias_regularizer": null, "bias_initializer": {"config": {}, "class_name": "Zeros"}, "kernel_constraint": null, "activity_regularizer": null, "kernel_initializer": {"config": {"scale": 1.0, "mode": "fan_avg", "distribution": "uniform", "seed": null}, "class_name": "VarianceScaling"}, "filters": 32}, "inbound_nodes": [[["conv2d_7", 0, 0, {}]]], "name": "conv2d_8", "class_name": "Conv2D"}, {"config": {"name": "add_4", "trainable": true}, "inbound_nodes": [[["conv2d_8", 0, 0, {}], ["activation_3", 0, 0, {}]]], "name": "add_4", "class_name": "Add"}, {"config": {"name": "activation_4", "trainable": true, "activation": "relu"}, "inbound_nodes": [[["add_4", 0, 0, {}]]], "name": "activation_4", "class_name": "Activation"}, {"config": {"trainable": true, "strides": [1, 1], "name": "conv2d_9", "dilation_rate": [1, 1], "kernel_size": [5, 5], "kernel_regularizer": null, "bias_constraint": null, "data_format": "channels_last", "padding": "same", "activation": "relu", "use_bias": true, "bias_regularizer": null, "bias_initializer": {"config": {}, "class_name": "Zeros"}, "kernel_constraint": null, "activity_regularizer": null, "kernel_initializer": {"config": {"scale": 1.0, "mode": "fan_avg", "distribution": "uniform", "seed": null}, "class_name": "VarianceScaling"}, "filters": 32}, "inbound_nodes": [[["activation_4", 0, 0, {}]]], "name": "conv2d_9", "class_name": "Conv2D"}, {"config": {"trainable": true, "strides": [1, 1], "name": "conv2d_10", "dilation_rate": [1, 1], "kernel_size": [5, 5], "kernel_regularizer": null, "bias_constraint": null, "data_format": "channels_last", "padding": "same", "activation": "linear", "use_bias": true, "bias_regularizer": null, "bias_initializer": {"config": {}, "class_name": "Zeros"}, "kernel_constraint": null, "activity_regularizer": null, "kernel_initializer": {"config": {"scale": 1.0, "mode": "fan_avg", "distribution": "uniform", "seed": null}, "class_name": "VarianceScaling"}, "filters": 32}, "inbound_nodes": [[["conv2d_9", 0, 0, {}]]], "name": "conv2d_10", "class_name": "Conv2D"}, {"config": {"name": "add_5", "trainable": true}, "inbound_nodes": [[["conv2d_10", 0, 0, {}], ["activation_4", 0, 0, {}]]], "name": "add_5", "class_name": "Add"}, {"config": {"name": "activation_5", "trainable": true, "activation": "relu"}, "inbound_nodes": [[["add_5", 0, 0, {}]]], "name": "activation_5", "class_name": "Activation"}, {"config": {"trainable": true, "strides": [1, 1], "name": "conv2d_11", "dilation_rate": [1, 1], "kernel_size": [5, 5], "kernel_regularizer": null, "bias_constraint": null, "data_format": "channels_last", "padding": "same", "activation": "relu", "use_bias": true, "bias_regularizer": null, "bias_initializer": {"config": {}, "class_name": "Zeros"}, "kernel_constraint": null, "activity_regularizer": null, "kernel_initializer": {"config": {"scale": 1.0, "mode": "fan_avg", "distribution": "uniform", "seed": null}, "class_name": "VarianceScaling"}, "filters": 32}, "inbound_nodes": [[["activation_5", 0, 0, {}]]], "name": "conv2d_11", "class_name": "Conv2D"}, {"config": {"trainable": true, "strides": [1, 1], "name": "conv2d_12", "dilation_rate": [1, 1], "kernel_size": [5, 5], "kernel_regularizer": null, "bias_constraint": null, "data_format": "channels_last", "padding": "same", "activation": "linear", "use_bias": true, "bias_regularizer": null, "bias_initializer": {"config": {}, "class_name": "Zeros"}, "kernel_constraint": null, "activity_regularizer": null, "kernel_initializer": {"config": {"scale": 1.0, "mode": "fan_avg", "distribution": "uniform", "seed": null}, "class_name": "VarianceScaling"}, "filters": 32}, "inbound_nodes": [[["conv2d_11", 0, 0, {}]]], "name": "conv2d_12", "class_name": "Conv2D"}, {"config": {"name": "add_6", "trainable": true}, "inbound_nodes": [[["conv2d_12", 0, 0, {}], ["activation_5", 0, 0, {}]]], "name": "add_6", "class_name": "Add"}, {"config": {"name": "activation_6", "trainable": true, "activation": "relu"}, "inbound_nodes": [[["add_6", 0, 0, {}]]], "name": "activation_6", "class_name": "Activation"}, {"config": {"trainable": true, "strides": [2, 2], "name": "conv2d_transpose_1", "kernel_size": [5, 5], "kernel_regularizer": null, "bias_constraint": null, "data_format": "channels_last", "padding": "same", "activation": "linear", "kernel_constraint": null, "use_bias": true, "bias_regularizer": null, "bias_initializer": {"config": {}, "class_name": "Zeros"}, "output_padding": null, "activity_regularizer": null, "kernel_initializer": {"config": {"scale": 1.0, "mode": "fan_avg", "distribution": "uniform", "seed": null}, "class_name": "VarianceScaling"}, "filters": 32}, "inbound_nodes": [[["activation_6", 0, 0, {}]]], "name": "conv2d_transpose_1", "class_name": "Conv2DTranspose"}, {"config": {"trainable": true, "strides": [1, 1], "name": "conv2d_13", "dilation_rate": [1, 1], "kernel_size": [5, 5], "kernel_regularizer": null, "bias_constraint": null, "data_format": "channels_last", "padding": "same", "activation": "relu", "use_bias": true, "bias_regularizer": null, "bias_initializer": {"config": {}, "class_name": "Zeros"}, "kernel_constraint": null, "activity_regularizer": null, "kernel_initializer": {"config": {"scale": 1.0, "mode": "fan_avg", "distribution": "uniform", "seed": null}, "class_name": "VarianceScaling"}, "filters": 32}, "inbound_nodes": [[["conv2d_transpose_1", 0, 0, {}]]], "name": "conv2d_13", "class_name": "Conv2D"}, {"config": {"trainable": true, "strides": [1, 1], "name": "conv2d_14", "dilation_rate": [1, 1], "kernel_size": [5, 5], "kernel_regularizer": null, "bias_constraint": null, "data_format": "channels_last", "padding": "same", "activation": "linear", "use_bias": true, "bias_regularizer": null, "bias_initializer": {"config": {}, "class_name": "Zeros"}, "kernel_constraint": null, "activity_regularizer": null, "kernel_initializer": {"config": {"scale": 1.0, "mode": "fan_avg", "distribution": "uniform", "seed": null}, "class_name": "VarianceScaling"}, "filters": 32}, "inbound_nodes": [[["conv2d_13", 0, 0, {}]]], "name": "conv2d_14", "class_name": "Conv2D"}, {"config": {"name": "add_7", "trainable": true}, "inbound_nodes": [[["conv2d_14", 0, 0, {}], ["conv2d_transpose_1", 0, 0, {}]]], "name": "add_7", "class_name": "Add"}, {"config": {"name": "activation_7", "trainable": true, "activation": "relu"}, "inbound_nodes": [[["add_7", 0, 0, {}]]], "name": "activation_7", "class_name": "Activation"}, {"config": {"trainable": true, "strides": [1, 1], "name": "conv2d_15", "dilation_rate": [1, 1], "kernel_size": [5, 5], "kernel_regularizer": null, "bias_constraint": null, "data_format": "channels_last", "padding": "same", "activation": "relu", "use_bias": true, "bias_regularizer": null, "bias_initializer": {"config": {}, "class_name": "Zeros"}, "kernel_constraint": null, "activity_regularizer": null, "kernel_initializer": {"config": {"scale": 1.0, "mode": "fan_avg", "distribution": "uniform", "seed": null}, "class_name": "VarianceScaling"}, "filters": 32}, "inbound_nodes": [[["activation_7", 0, 0, {}]]], "name": "conv2d_15", "class_name": "Conv2D"}, {"config": {"trainable": true, "strides": [1, 1], "name": "conv2d_16", "dilation_rate": [1, 1], "kernel_size": [5, 5], "kernel_regularizer": null, "bias_constraint": null, "data_format": "channels_last", "padding": "same", "activation": "linear", "use_bias": true, "bias_regularizer": null, "bias_initializer": {"config": {}, "class_name": "Zeros"}, "kernel_constraint": null, "activity_regularizer": null, "kernel_initializer": {"config": {"scale": 1.0, "mode": "fan_avg", "distribution": "uniform", "seed": null}, "class_name": "VarianceScaling"}, "filters": 32}, "inbound_nodes": [[["conv2d_15", 0, 0, {}]]], "name": "conv2d_16", "class_name": "Conv2D"}, {"config": {"name": "add_8", "trainable": true}, "inbound_nodes": [[["conv2d_16", 0, 0, {}], ["activation_7", 0, 0, {}]]], "name": "add_8", "class_name": "Add"}, {"config": {"name": "activation_8", "trainable": true, "activation": "relu"}, "inbound_nodes": [[["add_8", 0, 0, {}]]], "name": "activation_8", "class_name": "Activation"}, {"config": {"trainable": true, "strides": [1, 1], "name": "conv2d_17", "dilation_rate": [1, 1], "kernel_size": [5, 5], "kernel_regularizer": null, "bias_constraint": null, "data_format": "channels_last", "padding": "same", "activation": "relu", "use_bias": true, "bias_regularizer": null, "bias_initializer": {"config": {}, "class_name": "Zeros"}, "kernel_constraint": null, "activity_regularizer": null, "kernel_initializer": {"config": {"scale": 1.0, "mode": "fan_avg", "distribution": "uniform", "seed": null}, "class_name": "VarianceScaling"}, "filters": 32}, "inbound_nodes": [[["activation_8", 0, 0, {}]]], "name": "conv2d_17", "class_name": "Conv2D"}, {"config": {"trainable": true, "strides": [1, 1], "name": "conv2d_18", "dilation_rate": [1, 1], "kernel_size": [5, 5], "kernel_regularizer": null, "bias_constraint": null, "data_format": "channels_last", "padding": "same", "activation": "linear", "use_bias": true, "bias_regularizer": null, "bias_initializer": {"config": {}, "class_name": "Zeros"}, "kernel_constraint": null, "activity_regularizer": null, "kernel_initializer": {"config": {"scale": 1.0, "mode": "fan_avg", "distribution": "uniform", "seed": null}, "class_name": "VarianceScaling"}, "filters": 32}, "inbound_nodes": [[["conv2d_17", 0, 0, {}]]], "name": "conv2d_18", "class_name": "Conv2D"}, {"config": {"name": "add_9", "trainable": true}, "inbound_nodes": [[["conv2d_18", 0, 0, {}], ["activation_8", 0, 0, {}]]], "name": "add_9", "class_name": "Add"}, {"config": {"name": "activation_9", "trainable": true, "activation": "relu"}, "inbound_nodes": [[["add_9", 0, 0, {}]]], "name": "activation_9", "class_name": "Activation"}, {"config": {"trainable": true, "strides": [1, 1], "name": "conv2d_19", "dilation_rate": [1, 1], "kernel_size": [5, 5], "kernel_regularizer": null, "bias_constraint": null, "data_format": "channels_last", "padding": "same", "activation": "relu", "use_bias": true, "bias_regularizer": null, "bias_initializer": {"config": {}, "class_name": "Zeros"}, "kernel_constraint": null, "activity_regularizer": null, "kernel_initializer": {"config": {"scale": 1.0, "mode": "fan_avg", "distribution": "uniform", "seed": null}, "class_name": "VarianceScaling"}, "filters": 32}, "inbound_nodes": [[["activation_9", 0, 0, {}]]], "name": "conv2d_19", "class_name": "Conv2D"}, {"config": {"trainable": true, "strides": [1, 1], "name": "conv2d_20", "dilation_rate": [1, 1], "kernel_size": [5, 5], "kernel_regularizer": null, "bias_constraint": null, "data_format": "channels_last", "padding": "same", "activation": "linear", "use_bias": true, "bias_regularizer": null, "bias_initializer": {"config": {}, "class_name": "Zeros"}, "kernel_constraint": null, "activity_regularizer": null, "kernel_initializer": {"config": {"scale": 1.0, "mode": "fan_avg", "distribution": "uniform", "seed": null}, "class_name": "VarianceScaling"}, "filters": 32}, "inbound_nodes": [[["conv2d_19", 0, 0, {}]]], "name": "conv2d_20", "class_name": "Conv2D"}, {"config": {"name": "add_10", "trainable": true}, "inbound_nodes": [[["conv2d_20", 0, 0, {}], ["activation_9", 0, 0, {}]]], "name": "add_10", "class_name": "Add"}, {"config": {"name": "activation_10", "trainable": true, "activation": "relu"}, "inbound_nodes": [[["add_10", 0, 0, {}]]], "name": "activation_10", "class_name": "Activation"}, {"config": {"trainable": true, "strides": [1, 1], "name": "conv2d_21", "dilation_rate": [1, 1], "kernel_size": [5, 5], "kernel_regularizer": null, "bias_constraint": null, "data_format": "channels_last", "padding": "same", "activation": "relu", "use_bias": true, "bias_regularizer": null, "bias_initializer": {"config": {}, "class_name": "Zeros"}, "kernel_constraint": null, "activity_regularizer": null, "kernel_initializer": {"config": {"scale": 1.0, "mode": "fan_avg", "distribution": "uniform", "seed": null}, "class_name": "VarianceScaling"}, "filters": 32}, "inbound_nodes": [[["activation_10", 0, 0, {}]]], "name": "conv2d_21", "class_name": "Conv2D"}, {"config": {"trainable": true, "strides": [1, 1], "name": "conv2d_22", "dilation_rate": [1, 1], "kernel_size": [5, 5], "kernel_regularizer": null, "bias_constraint": null, "data_format": "channels_last", "padding": "same", "activation": "linear", "use_bias": true, "bias_regularizer": null, "bias_initializer": {"config": {}, "class_name": "Zeros"}, "kernel_constraint": null, "activity_regularizer": null, "kernel_initializer": {"config": {"scale": 1.0, "mode": "fan_avg", "distribution": "uniform", "seed": null}, "class_name": "VarianceScaling"}, "filters": 32}, "inbound_nodes": [[["conv2d_21", 0, 0, {}]]], "name": "conv2d_22", "class_name": "Conv2D"}, {"config": {"name": "add_11", "trainable": true}, "inbound_nodes": [[["conv2d_22", 0, 0, {}], ["activation_10", 0, 0, {}]]], "name": "add_11", "class_name": "Add"}, {"config": {"name": "activation_11", "trainable": true, "activation": "relu"}, "inbound_nodes": [[["add_11", 0, 0, {}]]], "name": "activation_11", "class_name": "Activation"}, {"config": {"trainable": true, "strides": [1, 1], "name": "conv2d_23", "dilation_rate": [1, 1], "kernel_size": [5, 5], "kernel_regularizer": null, "bias_constraint": null, "data_format": "channels_last", "padding": "same", "activation": "relu", "use_bias": true, "bias_regularizer": null, "bias_initializer": {"config": {}, "class_name": "Zeros"}, "kernel_constraint": null, "activity_regularizer": null, "kernel_initializer": {"config": {"scale": 1.0, "mode": "fan_avg", "distribution": "uniform", "seed": null}, "class_name": "VarianceScaling"}, "filters": 32}, "inbound_nodes": [[["activation_11", 0, 0, {}]]], "name": "conv2d_23", "class_name": "Conv2D"}, {"config": {"trainable": true, "strides": [1, 1], "name": "conv2d_24", "dilation_rate": [1, 1], "kernel_size": [5, 5], "kernel_regularizer": null, "bias_constraint": null, "data_format": "channels_last", "padding": "same", "activation": "linear", "use_bias": true, "bias_regularizer": null, "bias_initializer": {"config": {}, "class_name": "Zeros"}, "kernel_constraint": null, "activity_regularizer": null, "kernel_initializer": {"config": {"scale": 1.0, "mode": "fan_avg", "distribution": "uniform", "seed": null}, "class_name": "VarianceScaling"}, "filters": 32}, "inbound_nodes": [[["conv2d_23", 0, 0, {}]]], "name": "conv2d_24", "class_name": "Conv2D"}, {"config": {"name": "add_12", "trainable": true}, "inbound_nodes": [[["conv2d_24", 0, 0, {}], ["activation_11", 0, 0, {}]]], "name": "add_12", "class_name": "Add"}, {"config": {"name": "activation_12", "trainable": true, "activation": "relu"}, "inbound_nodes": [[["add_12", 0, 0, {}]]], "name": "activation_12", "class_name": "Activation"}, {"config": {"trainable": true, "strides": [1, 1], "name": "conv2d_25", "dilation_rate": [1, 1], "kernel_size": [5, 5], "kernel_regularizer": null, "bias_constraint": null, "data_format": "channels_last", "padding": "same", "activation": "sigmoid", "use_bias": true, "bias_regularizer": null, "bias_initializer": {"config": {}, "class_name": "Zeros"}, "kernel_constraint": null, "activity_regularizer": null, "kernel_initializer": {"config": {"scale": 1.0, "mode": "fan_avg", "distribution": "uniform", "seed": null}, "class_name": "VarianceScaling"}, "filters": 1}, "inbound_nodes": [[["activation_12", 0, 0, {}]]], "name": "conv2d_25", "class_name": "Conv2D"}], "name": "model_1", "input_layers": [["input_1", 0, 0]], "output_layers": [["conv2d_25", 0, 0]]}, "keras_version": "2.2.2", "backend": "tensorflow", "class_name": "Model"}